app/src/main/assets/model_hindi.tflite (tflite, 404348 bytes, 8 tensors)

arith.constant f4 [50, 64]
00000000: 5cc3 0e3e 90f8 e8bd 3504 c33c a0b1 91be
00000010: 4dc6 12be 917a 9dbe 3d9a 53bd 06f1 60bc
00000020: 51a6 f6bd 746c c63d fa33 443e a2c2 5ebe
00000030: c381 353e 8c43 1fbe 4d25 293e 8c02 adbd
00000040: 4a5a 5cbe b28f 923e 0d1f 36be d1db 04be
00000050: e9be 5b3e 8372 bcbe 4a4b 66be 3447 d23d
00000060: e27e 7b3e f030 413e 78fb 26be 973a d0be
00000070: 8d00 823e 37a8 a7bd f59a 603d 3590 ca3d
00000080: fe03 833c 4e9b f5be 7f9c 28be 92ea 29be
00000090: 7a75 7bbe 5ff8 aebe b351 143c cdff 6e3d
000000a0: 9926 8bbe 25ea 943d 2d8d 783e d47c 633e
000000b0: ac56 5fbe fbbd 2bbe dd28 4bbe 8fc0 52bc
000000c0: f4ba 0ebe 3bf0 5a3e b6fb a63d 8139 75be
000000d0: 3cae 8bbe 0bf2 b7be f619 aabd 5065 373e
000000e0: f4a6 48be dd78 83bd 5779 44be 430c 73bd
000000f0: 451c d3bd 99a7 74bd e024 d9bd 33a2 68bd
00000100: d7a0 80be 6007 c2be bc01 40be 4b48 b7be
00000110: b526 09bb 4832 5cbc 4835 55be 375b a4be
00000120: c072 63be e371 9cbd e398 db3d 8f87 92be
00000130: 4796 0ebe d067 9abd f8c3 523d bef2 f8bc
00000140: c04d aebe c1f9 33bd 86f9 02bd b828 913e
00000150: 7a64 43be 1465 923c 9377 2cbe 1bf3 4fbe
00000160: cb50 973d 0ebf 84be 1b2c 27be 54f0 0bbd
00000170: 5b7a 863e ff47 603e 7461 33be 7371 113e
00000180: 4ce1 4bbe 9738 f8be b438 7c3d 993a 8dbe
00000190: f3df 37be c8f3 a7be a493 833e 61b9 b7bd
000001a0: 1ad3 4abe c4a9 373e 0011 d2be fdba 443e
000001b0: 3d8a 99be 1595 cfbd 3b45 21be 6f18 01be
000001c0: f9df 88be 2cd5 e1bd 63cd 253e c87a c2be
000001d0: 10e1 c6bd 4c59 ef3d 841c 203c 46b0 0d3e
000001e0: ac7e d5be b2a2 f63d 2a5f 333e 92bf 0e3e
000001f0: 3c59 d83d ab5b 3fbd 3370 173d 2ac3 aebe
00000200: d951 0c3e 500d a83d 8e94 843e bbd6 12bf
00000210: 4a3b af3d 4d83 6c3d 3d58 2ebd 8a52 833d
00000220: 666b 84be 35da 8f3d 988e 00be e5ff 76be
00000230: ded9 88bb 3e2a 95bd 185d 473e a61c 99bd
00000240: cea5 a4be 19bc 8cbd 5728 b5be 0e66 1ebe
00000250: 03fe 82be 62ad 7fbe 9a5a 2d3d 7cb9 aabc
00000260: 77be cd3d 0b7e 2e3e 8760 65be ef9e f3bd
00000270: e194 04be dce0 253e 4ead 9f3c e7df 42be
00000280: c3a5 3fbe 3f68 263d 3f46 3d3e a205 5abe
00000290: 910c d4be 7891 4d3e 5d98 c9be 3e8a 0fbe
000002a0: ccf6 233e a000 153e 4e5a e03d b1fe 44be
000002b0: f82c ca3d c8d7 88be 64f1 7d3e 27fb 01bc
000002c0: b3cc 83bd 01e1 d6be 5c83 433d 2a8e 3a3e
000002d0: 2b19 6f3e 57b7 553d fa5e 3e3d 484f 57bd
000002e0: 0e19 0dbe 42ae 2abe 3522 d2bd 4249 e13d
000002f0: 23e4 cd3d 1559 f13c 4be9 ecbd e6bc 643d
00000300: 9d51 10be f882 ee3d cba1 4939 e8b4 2c3e
00000310: b348 47be 7c98 9ebd 43f3 60be 11f2 133e
00000320: b0e0 23bd b62f 01be 1c6d 94be d871 0ebd
00000330: aad1 27be 7b0b 25be 30e6 32be d01a 103d
00000340: 3c0f 3d3e 274b b0bd 8349 773e 0638 b9bc
00000350: 13ee 2fbd eebd 493e 466f bebe 0e26 72be
00000360: bd6f 58be 0b97 c93d 043f 6cbd 86e6 5d3d
00000370: ae81 123e 9068 9abe a297 72be 4725 a0bd
00000380: 36d5 88be ceb7 4dbd 6ca2 41bd 1194 823e
00000390: 2e82 293e 8ecf e43d 5477 123e 1e71 0b3e
000003a0: c85c 86b7 98fb 34be 00b0 cebd f4e2 283e
000003b0: 6a8f d33c bc37 26be 58ae a6be d7c9 5bbe
000003c0: b6e6 65bd 0cbc 9dbd fe91 883e cf24 1d3e
000003d0: 1297 d83c 7abb 37be 7c11 f337 4471 a83d
000003e0: 0279 193e c5b5 3ebe 1017 2dbe b276 ce3d
000003f0: ddbb 5dbd 5252 3e3e ca4d 7ebe 5615 79be
0.13941711 -0.113755345 0.023805717 -0.2845583 -0.14333458 -0.30757573 -0.051660765 -0.013729339
-0.12043441 0.096886545 0.19160452 -0.21753934 0.17725281 -0.15553111 0.16518135 -0.084477514
-0.21518818 0.28625256 -0.17785282 -0.12974478 0.21459545 -0.36806116 -0.22489658 0.10267487
0.2456012 0.18866324 -0.16306865 -0.406697 0.25391045 -0.08186381 0.05483528 0.098907866
0.015993115 -0.4797005 -0.16465949 -0.16593388 -0.24556533 -0.34173867 0.009052682 0.05834942
-0.27177885 0.07271222 0.24272604 0.22215587 -0.21810406 -0.1677169 -0.19839807 -0.012863292
-0.13938504 0.21380703 0.08153479 -0.23947717 -0.27281368 -0.35926852 -0.08305733 0.17909741
-0.19594938 -0.06419537 -0.19186912 -0.059337866 -0.10308126 -0.059730146 -0.106027365 -0.05679531
-0.2512271 -0.37896252 -0.18750662 -0.35797343 -0.0020927612 -0.013439722 -0.20821106 -0.3210084
-0.22211742 -0.0763891 0.1072252 -0.28619048 -0.13924514 -0.07539332 0.05145642 -0.030389186
-0.34043694 -0.043939356 -0.031976245 0.28351378 -0.19081298 0.017870463 -0.16842489 -0.20307581
0.07388457 -0.25927013 -0.16325419 -0.03416474 0.26265225 0.21902464 -0.17517644 0.14203434
-0.19910163 -0.48480675 0.061577514 -0.2758377 -0.17956524 -0.32803178 0.25698578 -0.08970905
-0.19807091 0.17935854 -0.41028595 0.19211955 -0.2998828 -0.10135857 -0.15749066 -0.12606977
-0.26733378 -0.110269874 0.1619163 -0.379843 -0.09710896 0.11686954 0.009772424 0.13836774
-0.41698205 0.120427504 0.17516771 0.13940266 0.10563895 -0.04671828 0.036972236 -0.34133273
0.13703097 0.08205664 0.25894588 -0.573589 0.0855623 0.057742406 -0.04256462 0.064122275
-0.25863189 0.070240416 -0.12554395 -0.24121054 -0.0041763624 -0.07283448 0.19469106 -0.074761674
-0.3215775 -0.06871814 -0.3538234 -0.15468618 -0.2558442 -0.24968484 0.042322733 -0.020840399
0.10046094 0.17040269 -0.22400104 -0.118955486 -0.12947418 0.16199058 0.019491818 -0.19030724
-0.18715577 0.04062676 0.18483828 -0.21291211 -0.41415837 0.20075023 -0.39374056 -0.14017579
0.16012114 0.1455102 0.10954724 -0.19237782 0.09871858 -0.26727128 0.24799114 -0.007933415
-0.06435528 -0.4196854 0.047732696 0.18218294 0.23349445 0.0521768 0.046477295 -0.052565843
-0.13779089 -0.16668037 -0.10260431 0.11000301 0.10053279 0.029461423 -0.115679346 0.05584421
-0.14093633 0.11646074 0.00019229126 0.16865885 -0.19461326 -0.07743928 -0.21967797 0.1444781
-0.0400092 -0.12615857 -0.28989494 -0.03477654 -0.16388574 -0.1611766 -0.17470622 0.03518182
0.18462843 -0.08608084 0.24149136 -0.022609722 -0.042951655 0.19701359 -0.3719427 -0.23647329
-0.21136375 0.09843262 -0.057677284 0.054174922 0.14307281 -0.301579 -0.23690656 -0.0781961
-0.26725167 -0.050224118 -0.04727404 0.2550359 0.16553566 0.111724004 0.14303333 0.1361737
-1.601725e-05 -0.176741 -0.10092163 0.16492826 0.025825221 -0.16232198 -0.3255489 -0.21463715
-0.056128226 -0.07701883 0.26673883 0.15346073 0.026439223 -0.1794261 2.8976e-05 0.08224729
0.14987567 -0.18624027 -0.16903329 0.10081233 -0.05413424 0.1858609 -0.24834362 -0.24324545

arith.constant1 f4 [64, 128]
00000000: d4dc 983d 76b3 76be 4916 00be a3c8 c3bc
00000010: 5497 89bd b3a6 e6bd 8350 08be e2c8 653e
00000020: c2ed 3f3e a7f3 a23d b6f1 9f3d e92d 4b3d
00000030: 2af6 9fbd c3bc 2e3e 92f0 99bd d2b0 4f3d
00000040: 5b0c 4e3d 64f8 cabc 0f08 613e efa3 54be
00000050: 0671 163e 0da6 443d 8d7f 5bbd 4e8c 0ebd
00000060: 8908 edbd 308d 01be e219 18be fac1 053e
00000070: f997 0f3e 3e0c bc3e 9087 363e e072 d8bd
00000080: 3f8f 583d 928f 703e 7be4 a1bd 0795 213e
00000090: 4966 8dbe 2ed9 113c e1be 2dbb ed59 803e
000000a0: ba86 86bd e14c 01be 8b37 913d f284 193d
000000b0: 9436 c13d edc9 c3bd 33ec 98ba f81c 0fbd
000000c0: cc03 0b3e 6ef2 d53d aef1 143e d08f 183a
000000d0: f0ab fabd cc0b 2f3e 46f7 02bd eeeb 82be
000000e0: 3c5d 8f3e 0667 fcbd 8678 d0bd a26f 823e
000000f0: b844 bebc e3b7 9dbd 57c2 4abd ba36 e73d
00000100: c251 653e 9178 743e 4437 dfbc 61ce f7bd
00000110: 557e e6bd 77cb 2c3e 0ffe 1abe 3a50 083e
00000120: 2b05 8fbd 2043 d03d d280 77bd d388 b2bb
00000130: 2d08 07bc 0730 743e f34e 70be cebd 863d
00000140: 6527 a9bc b0e6 c73c 34a2 c83d daec 8fbe
00000150: 2665 863e 4c65 3b3e 4762 88be c326 043d
00000160: 26fa fbbc 169b 813e e2bd 743e c4c0 1e3c
00000170: ccb4 29be c628 103e f286 773c 1d2d b33d
00000180: 40a3 b5bd eacc dd3d 37dc 343c 78c0 40be
00000190: 5fb8 d23d 4ca6 90be 507e 433e 1c27 3cbe
000001a0: 8a80 e7ba cf48 6bbd a520 43be 225e 21be
000001b0: ef9f 033e 640e 62be 96a0 3cbd f760 99bd
000001c0: 0e03 d6bd 1452 1abd 0301 7e3c 01e3 373e
000001d0: c495 ba3d cb4a ccbc 3b75 2a3e 2a29 863e
000001e0: 333e e0bc 4d2c 93bd 69fb 6b3d 1831 a0bd
000001f0: b481 1cbe 0b9b b63d d6ca 943d 068c 92bc
00000200: 1f1f 863e 9e69 ec3d 6be6 a33d 1d46 95bd
00000210: 1005 553e b5e2 dabc 6fe7 b0bc 1b4d 7f3e
00000220: 46b4 653e b5f5 35bd 4b5f 5f3e e88c ad3b
00000230: ed38 85be 86c4 773e 954d 25be 4e3e 923d
00000240: 48e2 183e ec93 8fbd bb77 c03d bd9b 513d
00000250: 8867 0dbc 6a2e 023d 162a b0bd 05df 813e
00000260: adf6 28be e8a1 dcbd 4dab afb9 0ada 15be
00000270: e0af 583e 3496 2fbe 4d33 bebd 8971 b5bd
00000280: b73e 173c 353e 873c caa9 3e3e 5cd4 cabd
00000290: 0fe0 793e 1cf3 a4bd 6829 eabd 09b9 24be
000002a0: d59f 073d 0007 cc3d 73e0 24be b152 003e
000002b0: d3ec 0e3e 8052 12be bdee 14bd 7ba5 913d
000002c0: a368 9bbd 0f8b 3dbd 8e5b 113e 4ec3 433e
000002d0: c857 4cbc 1140 593e f9c0 253c 2e71 18bc
000002e0: 2e3e 29be bcd7 6d3e 6393 5b3e d60b efbb
000002f0: d6a9 85bd 8f19 55bd 5328 1c3d 8797 14bd
00000300: 2de9 c0bd adfa 4cbd 9e19 4bbd 92fc 923d
00000310: a524 093e 14c1 acbd 17d3 9c3e 2d11 993e
00000320: effc b63d 629d 19be 6c74 5dbe 8429 893c
00000330: 9ba4 eabd ed80 a9be d5eb 56be 6cd9 51be
00000340: 9432 4bbe 288a f0bc eac2 fcbd 2193 e43d
00000350: ef18 e4bd 8fab a13d a47f ec3d f758 a13d
00000360: eaa4 b0bd 06b4 82bd 9eeb d7bd 9f15 693e
00000370: f6bd dabd a629 6dba 9fa7 58be 912c 01be
00000380: a5d7 143e 899f 743e 36f5 383e 805c 413d
00000390: accf cb3d 00bd b0bd 6145 cb3d 27c7 513e
000003a0: 6537 1bbd eb20 67bd 2c74 65be 7af1 833c
000003b0: f539 133e 581e f33d adaf 20be 92fb 903e
000003c0: 77f8 1e3e 77ed de3d bfc0 26be a905 2b3e
000003d0: 796a 70bd feb1 1b3d 1aff e2bd 395d 803d
000003e0: 2723 333d c7eb 013d e053 ec3c bbb9 fabc
000003f0: 28a0 4ebd d06f 9a3d 57de 1dbe 730c 8c3e
0.074639946 -0.24091896 -0.12508501 -0.023899382 -0.06718317 -0.11262264 -0.13311963 0.22439912
0.18743041 0.07956629 0.078097746 0.04960433 -0.07810624 0.17064194 -0.07516588 0.05070574
0.05030475 -0.024776645 0.2197573 -0.2076566 0.14691553 0.04800992 -0.05358844 -0.034801774
-0.115738936 -0.12651515 -0.14853624 0.13062277 0.14022817 0.3672809 0.1782515 -0.10568786
0.052870985 0.23492268 -0.07904907 0.15779506 -0.276171 0.008901877 -0.0026511478 0.25068608
-0.06568666 -0.12626983 0.07090672 0.037480302 0.09434238 -0.09559999 -0.0011667073 -0.034939736
0.13575667 0.104466304 0.14545318 0.00058197696 -0.12239826 0.17094344 -0.0319741 -0.25570625
0.2800082 -0.12324338 -0.10179238 0.25475794 -0.023226127 -0.07701089 -0.049501743 0.11289735
0.2239447 0.23874117 -0.027248032 -0.120999105 -0.11254565 0.1687449 -0.15135978 0.13311854
-0.069834076 0.10169053 -0.060425587 -0.0054484396 -0.008241695 0.23846446 -0.23467617 0.06579171
-0.020648668 0.024401993 0.09796563 -0.2811039 0.26249045 0.1830036 -0.2663748 0.03226353
-0.030758929 0.25313634 0.2390056 0.009689514 -0.16572875 0.14078054 0.015107857 0.08748839
-0.08869028 0.108301 0.011038831 -0.18823421 0.10289072 -0.28251874 0.19091153 -0.18374294
-0.0017662209 -0.057442483 -0.19055422 -0.15758565 0.12853979 -0.22075802 -0.046051584 -0.07489198
-0.104498014 -0.037675932 0.015503171 0.17957689 0.09110597 -0.024938008 0.16646282 0.2620328
-0.027373409 -0.07186184 0.05761281 -0.07821864 -0.15283853 0.08916291 0.072652504 -0.017889034
0.2619562 0.115435824 0.08002933 -0.07288764 0.20802712 -0.02671943 -0.021594731 0.24931757
0.2243205 -0.044423778 0.21813695 0.0052963383 -0.26019993 0.24196061 -0.16142876 0.0714079
0.1493007 -0.07010636 0.09397837 0.051173914 -0.008630641 0.031782545 -0.08601777 0.25365463
-0.1650035 -0.10773069 -0.0003350623 -0.14633957 0.21160841 -0.17147142 -0.092871286 -0.08859546
0.009231261 0.016509155 0.18619457 -0.099037856 0.24401878 -0.08054182 -0.11433679 -0.1608621
0.033111412 0.09962273 -0.16101246 0.12531544 0.13957529 -0.14289284 -0.03636049 0.07111641
-0.07588317 -0.046275195 0.14195082 0.19117472 -0.012472101 0.21215846 0.010116809 -0.009304328
-0.16527626 0.23226827 0.21442942 -0.007295112 -0.06526534 -0.052026328 0.038124394 -0.03627732
-0.09419475 -0.05004375 -0.049584977 0.0717708 0.13392885 -0.08435264 0.306298 0.29895917
0.08934962 -0.15001443 -0.21626443 0.016743429 -0.11457177 -0.33106175 -0.209884 -0.20493096
-0.19843513 -0.029362753 -0.123418644 0.11160875 -0.11137568 0.0789405 0.11547783 0.07878297
-0.08625205 -0.06381993 -0.10542987 0.22762154 -0.106807634 -0.00090470386 -0.21157692 -0.12614657
0.14535387 0.23888983 0.1806229 0.047207355 0.0995172 -0.08629799 0.09925342 0.20486127
-0.037894625 -0.056427877 -0.22407597 0.016106356 0.14377578 0.11871022 -0.15692015 0.28316933
0.1552447 0.108851366 -0.16284464 0.16701378 -0.05869529 0.038011543 -0.11083813 0.06267781
0.043734696 0.031718995 0.028848588 -0.030606141 -0.050445706 0.07540858 -0.15416847 0.27353248

arith.constant2 f4 [128, 256]
00000000: f3d9 a73d 5a05 b6bd 03c3 663d 57e6 54be
00000010: be52 3c3e 4043 353d 44ac 31bd ddbc 103e
00000020: 31ab 913d baa1 75bd ae45 663e 900e fdbd
00000030: 2692 56bd dabd 4ebd eff2 9b3d 19b1 263c
00000040: c882 88be 9aea b5bc 0e95 013d ae2a 0b3e
00000050: f00a 333d 715f 9bbd 3d0a 29bd fd45 9fbd
00000060: df1a 463e d514 6cbc 4373 633d 6fbc ad3d
00000070: 6f6a 603d 5ff3 423d bfce 433e 9054 54be
00000080: b527 e13c 4468 48bd ce0a e53d 6b4c 8abe
00000090: defa 14be c9cc c63d 2b6e 063e 4449 2dbe
000000a0: 59dd 023d 088a 0c3c e5ab cb3d 57ee 1f3e
000000b0: 6a2d ed3d 4547 25bd f124 ddbd e4c7 0ebe
000000c0: 31b7 4a3d a345 d73d 5490 833d 5c0c 583d
000000d0: 92a1 11be c66a 263e 9600 253d a5ed 76be
000000e0: 7afd 5abc 72d7 be3d 5a5d 5abc 90f2 f2bc
000000f0: 4397 0abe 072f c33d 1735 69be 53a8 8ebd
00000100: b26a 183e 84c3 d53d 65c6 5c3a 329a 35bc
00000110: 34d2 93bd fa01 14be 497b 043e e6ab b93a
00000120: 3d4a 7bbd 40a5 8eb7 eb00 0fbe 8964 b9bd
00000130: 448a f53a 2c09 153c a29c 4ebd 5204 b33d
00000140: 4495 fbbd 3e4b 943e 2060 34be cdea 19be
00000150: 845d 4f3e ed18 a6bd 29a7 b53d 2ea9 943c
00000160: 6b7c b5bc cf39 e3bd 51e1 9b3c e78c 0bbd
00000170: db27 90bc 2df6 183d b8a3 3bbd d226 50bd
00000180: 53c9 3d3d a355 c1bd 3f21 b7bd 970d 47be
00000190: 5629 3f3e b64c fe3d 2b0b dbbd 905a 6e3e
000001a0: c8fe b9bd 7b44 44be c37c c9bd 8f44 553d
000001b0: b436 973d ed89 89bd 5ef6 32be 9de1 393d
000001c0: 0313 cdbd 2c41 733d 748c a63d 271c 763b
000001d0: 052b b5bd a509 913d 77a2 aa3c 6eb4 823c
000001e0: 45d3 a7bd 271b abbd 724e cd3c dc26 5d3e
000001f0: 0012 993c 7f73 6d3e 9908 673c db69 fb3c
00000200: 0510 43be c884 69bd ec95 f93d 60d3 0cbd
00000210: 1841 42bd 4ec0 e83d 5e5f 593a 9ec3 883b
00000220: e6d1 ac3b 9874 28bd 1e9e 86be b39b b8bd
00000230: 4280 9d3b 9a4c a5bd 7354 223e eea1 27ba
00000240: b91e 2e3e b5f3 0bbe 513e 47bd 0f86 03bd
00000250: 1366 6f3d 0f09 59bc 2086 5b3d 07e0 993d
00000260: d344 1abd 1221 82bd 9c7b 213d 36d7 a6bc
00000270: eab1 633d 1ecb 453d 0692 153e 6ed5 1ebd
00000280: 7adc ad3d 937f 283e 678e efbc 8b7d 18be
00000290: 6767 4b3c 22a1 7bbd 09e7 03be 90bf 4f3e
000002a0: c19c 38bd 0b38 e7bd da0a 1cbd a29a 8abd
000002b0: e90f 3d3e 7019 243d 5380 b7bd 2704 0b3e
000002c0: 8407 853d b684 2c3b 83dd 88be e063 03be
000002d0: d767 0b3e ba92 f5bc a4aa 523c 8232 303e
000002e0: 037b 2e3c 5387 8e3d 52d2 853d 9a8a 82bd
000002f0: 85a6 503d 3a9a 133e 763c 2fbc 51bb e93c
00000300: a409 a2be 6fb4 353e 6394 c23c 40f2 42bd
00000310: 0359 5f3d 891a fabc a5a4 4fbd 920c 1c3d
00000320: d0bb 54bd ef95 0ebe 08f7 3e3e a518 4b3d
00000330: 1e2a a4bd ffe1 8fbe c1ed bc3d f94c 26be
00000340: be19 883d ee76 77bd c38d ea3d 0396 09bd
00000350: b374 57bd 96fa 23be 526c 29be 3662 f13c
00000360: 0e51 4ebe 0a80 d5bd a8d2 eabc 5f4e 2bbe
00000370: 3143 d13b 499a 353e 90a5 d7bd f1be 6b3d
00000380: d5e9 29be 8278 dfbc c47e d83d 1aa3 93bd
00000390: 7f6b 44bd 7333 da3d 2785 26bc f4a0 e43d
000003a0: df56 1fbd ccc3 0f3e 7c0e 2a3e 9a76 4e3d
000003b0: 6c12 8bbd e23b 91bd 6745 9a3d ea6d 803d
000003c0: 0cb6 e23d 4275 7dbd 160c 4ebe 3525 3fbe
000003d0: 2241 b03c d73a 273e 5364 0b3e 4c5d da3d
000003e0: 51d8 013d a221 afbd de08 89bd 5371 9b3c
000003f0: 3aff f43c 4e14 e3bc 95c7 143e 1f5d 0fbe
0.081958674 -0.088877395 0.05633832 -0.20790993 0.18390939 0.044253588 -0.043377176 0.14134546
0.0711273 -0.059968688 0.22487518 -0.12356293 -0.05238547 -0.050474025 0.07614695 0.010174059
-0.26662278 -0.022206593 0.03163629 0.135905 0.043711603 -0.075865634 -0.04126953 -0.07777021
0.19346188 -0.014409264 0.055529844 0.084832065 0.054789003 0.047595378 0.19121836 -0.20735383
0.027484754 -0.04892756 0.111837015 -0.27011427 -0.14548823 0.097070284 0.13127963 -0.1692248
0.031949375 0.008577831 0.09944896 0.15618263 0.11580928 -0.04035117 -0.10798062 -0.1394344
0.04949111 0.10511329 0.06424013 0.05274616 -0.1422179 0.16251668 0.040283762 -0.24114092
-0.013366098 0.09318437 -0.013327921 -0.029656678 -0.13534264 0.09530454 -0.22774158 -0.06965699
0.14884451 0.10437682 0.0008421897 -0.011084126 -0.072178274 -0.14453879 0.12937655 0.001416561
-0.061350096 -1.700467e-05 -0.13965194 -0.09052379 0.0018733223 0.009096425 -0.050442345 0.087410584
-0.122843295 0.28963655 -0.17614794 -0.15030976 0.20250517 -0.08110223 0.08869774 0.018147077
-0.022154054 -0.110950105 0.019028338 -0.03406992 -0.01759713 0.037344147 -0.04581043 -0.050818272
0.046334576 -0.09440162 -0.08941888 -0.19438778 0.18668112 0.12416975 -0.106954895 0.23276734
-0.09081799 -0.19166748 -0.098382495 0.052067336 0.07383481 -0.067157604 -0.17476794 0.045381177
-0.10013392 0.059388325 0.08132258 0.0037553401 -0.08846096 0.07081918 0.020829422 0.015955176
-0.08194593 -0.08354788 0.02506182 0.21596855 0.01868534 0.2318859 0.014101171 0.030690124
-0.1904908 -0.057011396 0.121867985 -0.03438127 -0.04742536 0.11364804 0.0008292104 0.00417371
0.0052740453 -0.041126817 -0.2629251 -0.09014072 0.0048065493 -0.08071251 0.15852527 -0.0006394674
0.17003907 -0.13667186 -0.048643414 -0.03211027 0.058446955 -0.013246789 0.05359471 0.07513433
-0.037663292 -0.06353964 0.039424524 -0.020366292 0.055589594 0.04828941 0.14606485 -0.03877776
0.08489318 0.16454916 -0.029242707 -0.14891641 0.01241479 -0.061432965 -0.12881102 0.20287919
-0.045071367 -0.11289986 -0.038096286 -0.06767775 0.184631 0.04006332 -0.08960023 0.13575803
0.06495574 0.002632422 -0.267315 -0.12831068 0.1361383 -0.029977191 0.012858067 0.17206767
0.0106494455 0.06959405 0.06534256 -0.063740924 0.050940055 0.14414302 -0.010695567 0.028531702
-0.3164798 0.17744611 0.023752397 -0.04759431 0.054528248 -0.030530231 -0.050694127 0.038097925
-0.051936924 -0.13924383 0.18648922 0.04958405 -0.08015846 -0.2810211 0.092250355 -0.162403
0.06645535 -0.060416155 0.1145282 -0.033590328 -0.052601527 -0.1601356 -0.16545227 0.029465776
-0.20148107 -0.10424812 -0.028664902 -0.16729115 0.0063861837 0.17734636 -0.105296254 0.057555143
-0.16593106 -0.027279142 0.105710536 -0.072088435 -0.04795408 0.106543444 -0.010163582 0.11163512
-0.038901206 0.14039534 0.16607088 0.050406076 -0.06790623 -0.070915 0.07532769 0.062709644
0.11069879 -0.061879404 -0.20121798 -0.18666537 0.021515433 0.1633104 0.1361249 0.10662326
0.031700436 -0.08551337 -0.066911444 0.018974936 0.029906858 -0.027719643 0.1452926 -0.14000367

arith.constant3 f4 [50]
00000000: fae3 0f3d ab6a 0c3c c4f3 693b 4405 143d
00000010: e403 523c 45fa f33c 3c7d 06be 7994 4d3d
00000020: 972f 043d 346a 97bd b6d8 033d d229 233c
00000030: 600d 83bd 2945 be3a 02d7 863d d677 f6bb
00000040: 47bf babc 9c68 c339 162e 513b 2ccc 19bd
00000050: e9e6 81bd fed3 d6bc e899 ba3c 3cfa 2d3d
00000060: 9ade b3bb 29bf 57bc 3dd8 4d3d 1554 e63c
00000070: e459 9cbc 2527 f33c 5a18 8c3c 12d0 d83c
00000080: 60ec ba3c 6807 4e3d 20bb a33d 8531 e23b
00000090: bb9b aebc 0bd2 a2bd 3cb2 883d 9ddf dbbb
000000a0: 1125 5ebd 50b4 83bd 628d a1bd 46a5 39bd
000000b0: 1f53 11be 0905 21bb ba6d 05bd f46f 5cbd
000000c0: 6422 a63d 1db9 263d
0.035129525 0.0085703535 0.0035698274 0.036137834 0.01281831 0.029782424 -0.1313371 0.050190423
0.032271948 -0.073933035 0.032189094 0.009958701 -0.063990355 0.0014516461 0.06583978 -0.00752161
-0.022796286 0.00037271238 0.0031918338 -0.03754823 -0.06342871 -0.026224133 0.022778466 0.04247497
-0.0054891827 -0.013168135 0.05025505 0.028116265 -0.019085832 0.029681752 0.017101455 0.026466403
0.02281779 0.050300032 0.07994676 0.006902876 -0.021314492 -0.07950219 0.066746205 -0.0067100064
-0.054234568 -0.06430876 -0.07888295 -0.045323633 -0.14191864 -0.0024569652 -0.032575347 -0.053817704
0.08112028 0.04070388

arith.constant4 f4 [64]
00000000: 6e9c dd3c 8a4b 863d 9814 353d 98af 383d
00000010: 692f 66bc 8f8e 05bd 104f a23c 960e 553d
00000020: b03a edbc 94d3 c1bc 7f0c 083c 8bfc 5d3d
00000030: 9280 b4bd 7a6f a4bd a108 0a3d ab4b 90bb
00000040: 09a9 8ebd ed92 213c ce83 213d c8e2 9d3d
00000050: f4f4 eb3c 2250 883d b5bb 15bc beb7 64bd
00000060: 51cd a83d f677 9a3d c978 2e3d e438 0d3d
00000070: 7f7e adbc 723e 303d 8c3e b83c 0297 7b3b
00000080: 72d4 c3bc 2824 b03d eee8 9b3c 96a3 f4bc
00000090: e5b1 563b 5ed1 3a3c 5b36 823c f54b 873d
000000a0: b505 cb3d 00bd 95bb 031d 833d 2489 163d
000000b0: 3c02 abbb c2b5 0d3c e9aa 873c 9ace 6d3b
000000c0: edf3 f6bc 9335 d4bb c82c e93d 1c19 b53c
000000d0: 5e22 923d 9f78 af3c 92f1 e2bc e3b9 673d
000000e0: 6d00 5b3d 411f 00bd 2249 913b 091a eebc
000000f0: 48c8 bbbb 8d2d 0a3d 205c f53b d5d1 493d
0.02705213 0.06557377 0.044209093 0.045089334 -0.014049389 -0.032606658 0.01981309 0.052015863
-0.028958648 -0.023660459 0.008303761 0.054195922 -0.08813585 -0.08029075 0.033699635 -0.0044035516
-0.06965835 0.00986169 0.03943234 0.07709271 0.028803326 0.06655909 -0.009138991 -0.055839293
0.08242286 0.07542412 0.04259566 0.034478083 -0.021178482 0.043028302 0.022490762 0.0038389568
-0.023905013 0.08600646 0.019031968 -0.02986316 0.0032759842 0.011402456 0.01589506 0.066062845
0.09913198 -0.0045696497 0.06402018 0.03675188 -0.005218772 0.0086492915 0.016560989 0.0036286474
-0.03014561 -0.006476113 0.113854945 0.0221067 0.07135461 0.021419821 -0.02770308 0.05657376
0.053467203 -0.031279806 0.004433767 -0.029065149 -0.0057306625 0.033734847 0.007487789 0.049272377

arith.constant5 f4 [128]
00000000: af6f 98bb 6270 583d 0269 203d 2a57 113d
00000010: 5912 16bc dbe9 993c f632 a33d 366d 073d
00000020: b56e 633d 8821 2fbc 2915 96bd 3cee 843d
00000030: 9b32 ae3c 2158 293c 583d df3b 0ead 80bc
00000040: acb0 593c 9d67 92bc 7a76 183d e1cd 48bd
00000050: 18fd fc3a aa37 853d 16f5 873d 320f 523d
00000060: e0d9 70bd 59fc 873d 8c82 0bbc 2007 01bd
00000070: 5ae4 273d b341 55bc 33a9 613a a11b 2a3d
00000080: 6338 afbc 0c50 d3ba c4fa 4a3d 02f2 d5bc
00000090: 7fab 10bc 7166 ec3b 1910 c13d 957d 783c
000000a0: 09fb 043d 5b0e 353a b1d2 be3c f529 abba
000000b0: 67c0 623d 88ea 5b3d d33b 62bd 3c60 3fbd
000000c0: 00d8 073c 159a 6f3b 0ce4 6b3d 052f 92bd
000000d0: 383b 853c 7dac 2d3d 7d70 563d 5ee5 093c
000000e0: 2fad 1f3d bdef 75bc c0b3 0ebd 7286 513d
000000f0: 9b16 2abd d42f a63c 509d 543d 0e74 283b
00000100: cb9e 3abc 56e4 8fbc c88c ad3c 7112 d43c
00000110: 3c8d 6abb 7894 8339 b282 913c 1768 833d
00000120: 6f1f debb d1c7 9abc e9ac 39bc a77f e13b
00000130: 0900 a5bd 4ed0 f3bc e2fa 183d bf6a 4dbc
00000140: 3157 a5bb 068b c3bc 36cb 733d d70c 833d
00000150: e442 53bb 8a31 e23c b8b9 0abd ed04 d239
00000160: 415e 263b a9ba 8a3d 100c 1b3c f1fc e9bc
00000170: 5c72 fe3b 6d8d b53a deec 9abd 2cde 393d
00000180: 29e7 843d 730e 14bd 8656 2d3d 6431 8c3c
00000190: 13fb d4bc 90a1 17bd b96d c1bc 86c0 503d
000001a0: 63ec 4d3b f92c 223b 2da6 6a3d 63eb 463b
000001b0: 1959 243d badd de3c 9f6d ad38 7456 d93c
000001c0: 18ba 063d 9630 043d ca9f 473d 7246 0abd
000001d0: 4a6e fdbc dd5a 04bd afbf 433d bf08 22bc
000001e0: 6056 713d 9641 983d f5f5 74bc fccb 0f3d
000001f0: 70a6 aebb 894d a03c 968e b1bb 19ff 05bd
-0.0046519856 0.05284155 0.039162643 0.035483517 -0.009159648 0.018788269 0.079687044 0.033063136
0.0555255 -0.010689147 -0.07328255 0.06490752 0.021264365 0.010335953 0.0068127327 -0.015707519
0.013286751 -0.017871672 0.037222363 -0.049024466 0.0019301502 0.06504758 0.06638543 0.051284023
-0.05880153 0.06639928 -0.0085150115 -0.031500936 0.040989257 -0.013016152 0.00086082815 0.041530255
-0.021389192 -0.0016121878 0.049555555 -0.026116375 -0.00882995 0.0072143604 0.094268985 0.01516666
0.03246597 0.0006906741 0.023293825 -0.0013058769 0.05535927 0.053690463 -0.055232834 -0.046722636
0.0082912445 0.0036560346 0.05759053 -0.071378745 0.01626359 0.042400826 0.05235337 0.008416502
0.03898352 -0.015010771 -0.03483939 0.051153608 -0.041525465 0.020286478 0.051907837 0.002570394
-0.011390398 -0.017564934 0.021185294 0.0258877 -0.0035789749 0.00025096885 0.017762516 0.06416338
-0.0067786495 -0.018894108 -0.011332729 0.0068816724 -0.08056647 -0.029762413 0.037348635 -0.012537657
-0.0050457944 -0.023870002 0.05951997 0.063989334 -0.0032235915 0.027611513 -0.03386852 0.0004005799
0.002538577 0.06773884 0.009463325 -0.028562995 0.0077650975 0.0013851352 -0.0756471 0.045377895
0.06489403 -0.036146592 0.042318843 0.017113395 -0.025998628 -0.037019312 -0.02361189 0.050964855
0.0031421415 0.0024746044 0.057287384 0.0030352704 0.040124033 0.027205337 8.269701e-05 0.026530482
0.032892317 0.032272898 0.04873637 -0.033758588 -0.030936379 -0.032313216 0.047790226 -0.009889781
0.058920264 0.074343845 -0.014951219 0.035106644 -0.0053298995 0.019568222 -0.005418609 -0.032713983

sequential_1_1/dense_4_1/BiasAdd/ReadVariableOp f4 [256]
00000000: 1732 b3bd b051 ddbd 19ba d2bd b4bd acbd
00000010: e439 d1bd 5e39 dabd 0692 b0bd 1c0f 3fbe
00000020: 9956 86bd a483 e6bd ef53 66be 4d26 25be
00000030: 232d 10be 004c dcbd 48e0 18be 1cc0 e5bc
00000040: d7ae 52bc 932e e4bd 387e bcbd b76b 98bd
00000050: ce96 c4bd 3773 26be 768b 97bd c89c 02be
00000060: f68b a9bc a0aa 06be 0748 04be 863b ceba
00000070: 830b f6bd b9af 59be 44b3 38be d930 8dbd
00000080: 4112 c5bd 3c01 8dbd 9b00 27be 82e6 d4bd
00000090: e43b 74bd e0e6 2dbd bd26 efbd 58e9 15be
000000a0: 66ff 04be 27ad 203d c673 45be 8dd3 5cbd
000000b0: 7028 01be f137 49bd 3dce babd 8e60 09be
000000c0: 5826 72bd 6371 76be da7c 4abd 4f4b 13be
000000d0: df26 16bc b2b3 c0bd 0f84 9ebd bb11 42be
000000e0: caf1 8cbd 432a 93bd 9b19 f03b a52d 41be
000000f0: f26e c3bd 7a38 c9bd c341 0fbd 1c2f c8bd
00000100: e902 3fbc ba2a a4bd ab50 8bbd 5df6 fcbd
00000110: 3494 dabd c9c4 a33d 8d51 4cbd 682d a6bd
00000120: 7d39 dcbd 7f7a 943b 1fda b8bd 8b45 eabd
00000130: b82d c2bd 4b89 90be 0343 27be ad8b 75bd
00000140: 8aef a6bd a1ca d8bd e4c5 85bd 3032 11be
00000150: 471c cd3b 87f5 d3bd 9e50 53be 0392 1fbe
00000160: 0766 09be 5d52 a53b cb9c 89bd a6d4 3abe
00000170: d567 d9bb 43ea 81bd 1faa 863d 3f1f 6dbd
00000180: 4f1c fabd d7ca 5abe 8be2 f4bd 25d9 86bc
00000190: 2238 47bd 94b0 a8bd 5ce6 88bd 1ec8 d5bd
000001a0: abbf 00be 9f63 89bd e956 933c fc38 32be
000001b0: 36cb 19bd 7737 80bd 7187 fdbc 2bae 91bb
000001c0: d2d5 9bbd 0ea5 b4bc c88b 1bbe 4a0a a0bc
000001d0: 39cf 34be 786f cdbd 7033 f9bd b600 0fbe
000001e0: 2032 ebbc 8ef1 58be 17b3 8bbd 87f5 5abd
000001f0: 1f65 f8bd daa3 ff3d 85ba 6dbe 4976 8abd
00000200: 8e87 ecbc 4c2d 64bd b21f debb 9e40 41be
00000210: 578e bebd 9d70 01bd 9dc3 25be 8186 d1bd
00000220: a9a1 9fbc 4531 cebd 8a12 ffbd 6775 5dbe
00000230: 231e 32be c32a dcbd 7012 75be 9f41 26be
00000240: 2458 b4bd 2603 d8bd fd10 b4bd 0898 17be
00000250: 7287 d2bd d227 edbd a854 e4bd ea64 25be
00000260: 41c7 72bd 6e36 5338 8eda cebd b3b0 c03c
00000270: 37cd 62bd 21d9 e9bd 9f28 39bd 434a 53be
00000280: ee19 26bd dc87 06be 0c57 d7bd 5d4f 06be
00000290: 5681 2ebe 0a1d 01be 0652 bcbd 8032 39bd
000002a0: 348b 64be 5dbb b2bd 4b51 5cbd 5c5f 43be
000002b0: 17f3 a6bd 8638 02be 6a16 a4bd 7fcc 8abd
000002c0: 2ad4 dabc 5577 35be 0d73 67bd febe 2dbe
000002d0: 70eb afbd 02ee 00be dd0a 08be 936d 50be
000002e0: a3a4 f2bd 591c 37be 03a3 f7bd 6f46 8dbd
000002f0: 8277 f83b 0957 45be 61b7 f9bd fe22 68bd
00000300: 69f6 04be 6943 a2bc ae9d 87bd 7a3b a5bd
00000310: e2d9 91bd 65f2 18be 3e7f b8bd 0386 ffbd
00000320: 1247 31be 295a f3bd d454 6dbd 3571 143d
00000330: 648c eabd 78a4 15be eda1 c0bd 124d 653c
00000340: d0b3 c4bd cafb 8dbd 576d a4bc 8a68 06be
00000350: d565 babd b86c 59bd 6a6d 6cbe d169 debd
00000360: 2852 97bd 1b48 abbd 0546 e6bb 26ac 57ba
00000370: e8aa 42be 341b c7bc c0ab 0c3d cb34 9ebd
00000380: 4558 b7bd e42b e9bd c181 17be 8e41 adbd
00000390: 336e 93bd 8fe3 0fbe 5cf2 53be cbe2 2fbe
000003a0: c455 d2bd b9c8 e8bd 904a 4abc ce89 b2bd
000003b0: 2563 80bd ee4a 12be 7e82 e8bd b6d0 b5bd
000003c0: 6d55 18be 4860 65bd e4b7 10be 4b0c 97bd
000003d0: 8575 88bd a25a 9cbd 5391 84bc 8dbf 68be
000003e0: f382 5dbd b577 a6bd 7c51 adbd 2f26 df3d
000003f0: 2823 2abe 980a 7cbd 3473 1bbd 1ca4 b0bd
-0.08749788 -0.10806596 -0.102894016 -0.084346205 -0.1021612 -0.10655473 -0.08621602 -0.18658108
-0.06559486 -0.11255577 -0.22492956 -0.16127892 -0.14079718 -0.10756683 -0.14929307 -0.028045706
-0.012859068 -0.11141696 -0.09203762 -0.0744242 -0.09599076 -0.16254888 -0.07399647 -0.1275512
-0.020696621 -0.13151026 -0.12918101 -0.0015734292 -0.120139144 -0.21258439 -0.18037134 -0.068940826
-0.09622622 -0.06885001 -0.16308825 -0.103955284 -0.05962743 -0.042456508 -0.116773106 -0.14639795
-0.12988052 0.03922763 -0.19282445 -0.053912688 -0.12613082 -0.049125616 -0.09121368 -0.13415739
-0.0591186 -0.24066691 -0.049435474 -0.14384197 -0.009164541 -0.09409274 -0.07740032 -0.18952076
-0.06882055 -0.07185795 0.007327271 -0.18865068 -0.095426455 -0.09825225 -0.034974825 -0.097746104
-0.011658409 -0.08015962 -0.068024956 -0.123516776 -0.10672799 0.07996518 -0.04988246 -0.08114129
-0.107531525 0.0045312042 -0.09025978 -0.114390455 -0.094813764 -0.28229746 -0.16334157 -0.05994766
-0.08151157 -0.105855234 -0.06531885 -0.14179301 0.0062594744 -0.10349565 -0.20636222 -0.15583043
-0.13417827 0.005045219 -0.06719359 -0.18245181 -0.006634692 -0.0634351 0.06575417 -0.057891127
-0.12212431 -0.2136644 -0.11957272 -0.016460964 -0.048637517 -0.082368046 -0.066845626 -0.1043856
-0.12573116 -0.06708454 0.017985778 -0.1740455 -0.037547313 -0.06260579 -0.030948373 -0.0044458113
-0.07609142 -0.02205136 -0.15190041 -0.019536156 -0.17657174 -0.100310266 -0.12168014 -0.13965115
-0.028710425 -0.21185896 -0.06821268 -0.05345681 -0.12128662 0.12482424 -0.23215683 -0.06760842
-0.028873231 -0.05570726 -0.0067786807 -0.18872306 -0.09304493 -0.031601537 -0.16187902 -0.10230733
-0.019486265 -0.10067991 -0.12454708 -0.21626817 -0.17394309 -0.10750344 -0.23932815 -0.1623597
-0.08805874 -0.105474755 -0.08792303 -0.14804089 -0.102797404 -0.11579861 -0.111489594 -0.16151777
-0.059272055 5.035701e-05 -0.1010028 0.023521757 -0.05537149 -0.11418367 -0.045204755 -0.20633797
-0.040552072 -0.13137764 -0.1051465 -0.13116212 -0.17041525 -0.12608734 -0.09195332 -0.045214176
-0.22318727 -0.08727143 -0.053788465 -0.19079345 -0.081518345 -0.12716874 -0.08012088 -0.06777286
-0.026712496 -0.17721303 -0.056506205 -0.16967389 -0.08589828 -0.12590793 -0.13285394 -0.20354299
-0.11847808 -0.17881908 -0.12091639 -0.068982 0.007582606 -0.19271483 -0.1219318 -0.056673996
-0.12984623 -0.019807534 -0.06621872 -0.08067985 -0.07121636 -0.14936216 -0.090086445 -0.124767326
-0.17312267 -0.11882431 -0.057942227 0.036240775 -0.11452559 -0.14613521 -0.09405885 0.013995426
-0.09604609 -0.069327906 -0.020071669 -0.13125816 -0.09101454 -0.053082198 -0.23088613 -0.10860027
-0.07388717 -0.083633624 -0.00702739 -0.0008227251 -0.19010508 -0.024304964 0.03434348 -0.07724913
-0.08952383 -0.113853246 -0.14795591 -0.08459769 -0.07198753 -0.1405165 -0.20697922 -0.17176358
-0.10270265 -0.1136641 -0.012346879 -0.087176904 -0.0626891 -0.14286396 -0.113530144 -0.08877699
-0.14876337 -0.056000024 -0.14132649 -0.073753916 -0.0666304 -0.07634474 -0.016182577 -0.22729321
-0.05407996 -0.08128301 -0.084628075 0.10895955 -0.16614974 -0.06153354 -0.037951663 -0.086250514

sequential_1_1/dense_4_1/MatMul f4 [256, 218]
00000000: 9bb0 ac3c 09f6 2dbd 6c4c 4c3d e17e 50bc
00000010: 530b a53e d1fd 09be 41cc 8a3d 0e25 5cbd
00000020: a46f 1f3e 9e51 65be 7d73 a33d 87aa 023d
00000030: fb8d 9f3b 9ca5 4ebe 9a72 93bd 3053 9fbe
00000040: 1643 893d 5208 2f3e 3e68 9a3d d9d0 09bc
00000050: 0a75 143e 57f2 bb3d 914b 113c c34e c13d
00000060: ad27 53bd ce92 b73d 2fb3 94bd a8d4 8cbc
00000070: e898 a9bc 80d7 33bc 90f6 d43d 9097 a03d
00000080: 6e30 533e 06c7 ca3d 1835 553e 170d e73d
00000090: e195 0f3e aa7a 8ebd f234 0a3d fa72 f3bb
000000a0: b48c ffbb e59f 88bb b885 00bc 4319 2f3e
000000b0: 56d1 8e3d 7b65 6dbd d1a3 a03b 56dc 46be
000000c0: 6ebb 2cbe 4729 6ebe aec4 8cbe fd61 3cbe
000000d0: 15ab 4cbe 1ce4 e2bd f28d 65be 24f0 61bc
000000e0: 65d3 4cbe f21f 84be a019 b2bd 183e 01be
000000f0: 398e 10be bfed 45bd 4fbe 57be f412 4abd
00000100: 2c69 01be afa7 da3d 323f fb3d 92c9 563d
00000110: 1463 093d 2039 b53c 400b 05be ccbf 4cbd
00000120: 420a 6bbd 4edf b3bd 9e92 c8bc 844a 0eba
00000130: 021b 1bbc bee6 33be 6e96 3ebe 3338 c7bd
00000140: 726e 97bd 48c2 063e 17a7 023d 60c0 1bbd
00000150: f759 903d 1ab7 5dbc 5e58 15be 9de7 96bc
00000160: 0df1 05be c8c2 143c dc9f 193e 7889 663d
00000170: de79 9c3d e83c 053e 2915 893d 05e0 92bd
00000180: c3ad 8f3d 8f42 cd3a df01 a43d 705f 72bd
00000190: 3503 4ebd 9870 61bc be98 b9bc 81c5 8bbd
000001a0: 947a 5ebc e5c2 8539 dfd4 ae3c 4381 64bd
000001b0: adde 03bd ddb3 373d 6c53 7ebd 5ff0 dd3c
000001c0: 7d68 b9bc 6efa 24bc c1cb 01be c776 6bbd
000001d0: 6719 4b3c 0376 35be e4a3 063d 0d19 133d
000001e0: 7fa5 c23d 757f e43b 9c06 c03d ce6b c63d
000001f0: 4cc0 ce3b 980e 4abd 483b 2cbe 0ff5 f33a
00000200: 2dce babd 9109 cabd d269 ccbd b296 a53d
00000210: 8b96 d93b c3d0 2f3e c967 a53d 1ba6 ac3d
00000220: 729c ae3a 44b6 9e3d 97a4 0f3d 9982 4e3d
00000230: d966 11bd a6c8 633e 4848 373e afa6 7b3e
00000240: 495d 953d f827 babd 41ea 3e3d 3524 5cbd
00000250: 0d8e 363d f363 a83d 7f58 d33d 52ea c63d
00000260: 8854 f3bd 9df5 fabb eff6 ce3d 327b 46bd
00000270: 550a 29bd e7a3 a03b 7089 96bd 398d 813d
00000280: b8f2 0cbe b923 afbd 4a04 e2bd bd80 8e3d
00000290: 9123 ffbb 63f0 da39 bda0 dd3d 5e4c 443c
000002a0: 9e95 c83d 7dc3 043e 9b8a b93d 848e 4e3d
000002b0: 9ef4 083e 3d27 5d3e 6cca f93d 48b4 313e
000002c0: 14d8 1d3e 9767 74bd d77d e1bc a564 cc3b
000002d0: ed19 b1bd 176d 113c 374f 07bd a8cd a6bd
000002e0: 52e4 f93d d0fa 33bd 7acb cdbc 002d 44bc
000002f0: d605 16bd a5d8 30bd e6d0 1b3d 43f3 323d
00000300: 6929 2c3d 0682 b2bd 4d6f c8bb aa93 643d
00000310: f8a6 ce3b 5124 d03d c4c7 483e cebd 773d
00000320: cade 023e bbcd 163e f0bb a9bd c757 84bd
00000330: c9ec 77bd 09f1 7bbd 2cb0 00be b1f2 0cbe
00000340: 9f8d 3ebd 2aa4 2dbd 91b3 f9bd 2025 0ebc
00000350: 9556 acbd 53aa 4abe 2474 29be 2804 10be
00000360: 8fa1 06bd 6be2 2bbe 3477 5dbd 1e04 673d
00000370: 6f2d c13d 45d1 223d c631 913c b679 2e3d
00000380: 3e6b 41bd 12ed fcbd cb8e 933d b56d 193e
00000390: 24ba 6c3e b4ad bdbd e7dc a7bd 00a6 e8bc
000003a0: 58f9 d1bc e2d9 01bb 939d a43e c238 2abe
000003b0: 2b03 8f3b de72 8e3d d3f3 453e 0289 593e
000003c0: 804f 8a3e b9d1 883d 594a 433e 27c3 5d3d
000003d0: e2e0 b7bc 664a 11be 815a 65be a08f 65be
000003e0: 3298 8abe 3864 50be 3c0f 09be 02a8 b1bc
000003f0: cb42 cdbd 1f2d da3b 6cd4 963d 0ea8 113e
0.021080306 -0.042470966 0.04987757 -0.012725563 0.32235202 -0.1347573 0.067772396 -0.053746276
0.15569931 -0.22394416 0.07981012 0.03190091 0.0048692203 -0.20180362 -0.07199593 -0.31118155
0.06702249 0.17093018 0.07539414 -0.00841161 0.14497772 0.09177082 0.008868114 0.09438851
-0.05155151 0.08963548 -0.07260739 -0.017191246 -0.020702794 -0.010976672 0.103985906 0.07841408
0.20623943 0.09901242 0.20821035 0.112817936 0.14022018 -0.0695699 0.0337419 -0.0074294778
-0.0077987555 -0.0041694515 -0.007844381 0.1709948 0.069735214 -0.057958107 0.004902341 -0.19419989
-0.16868374 -0.23257934 -0.27493805 -0.18396755 -0.19987138 -0.11078665 -0.22417429 -0.013790164
-0.20002516 -0.25805622 -0.08696294 -0.12621343 -0.14116754 -0.048322435 -0.2106869 -0.04933448
-0.12637776 0.10676514 0.12267913 0.052438326 0.033541754 0.022121966 -0.12992573 -0.0499876
-0.05738283 -0.08782826 -0.024483975 -0.0005427974 -0.009466888 -0.1756849 -0.18612072 -0.09727516
-0.07394113 0.1316005 0.03189763 -0.03802526 0.070484094 -0.013532424 -0.1458449 -0.018420989
-0.13080235 0.009079643 0.15002388 0.056283444 0.07640432 0.13011515 0.06693489 -0.071716346
0.07015564 0.0015660095 0.080081694 -0.059173048 -0.050296027 -0.013759755 -0.022655841 -0.0682478
-0.01357903 0.00025512945 0.02134174 -0.055787336 -0.032194782 0.044849265 -0.062091276 0.027092157
-0.022632832 -0.010069473 -0.12675382 -0.05748632 0.012396193 -0.17720799 0.032871142 0.035912562
0.09504222 0.006973202 0.09376261 0.09688531 0.0063095447 -0.049330324 -0.16819489 0.0018612462
-0.09121356 -0.09865106 -0.09981121 0.080853835 0.0066402606 0.1716948 0.08076436 0.084301196
0.0013321771 0.07749608 0.035069074 0.050417516 -0.035498474 0.2224451 0.17898667 0.24575303
0.07293183 -0.09089655 0.04661012 -0.053745467 0.044569064 0.08222189 0.10319614 0.09712662
-0.118813574 -0.007658674 0.101056926 -0.048457332 -0.04126962 0.004902351 -0.07350433 0.06325764
-0.13764465 -0.085517354 -0.11035974 0.06958149 -0.0077862223 0.00041759302 0.10821674 0.011981098
0.09794162 0.12965198 0.0905964 0.050428882 0.13374564 0.21597 0.12196812 0.17353928
0.15414459 -0.059669103 -0.027525825 0.0062375837 -0.08647523 0.008876107 -0.03303453 -0.081446946
0.12201752 -0.043940365 -0.02512144 -0.011973619 -0.03662666 -0.04317536 0.038041018 0.043689024
0.04203168 -0.08716206 -0.0061167837 0.055804886 0.0063065253 0.10163177 0.19607455 0.060483746
0.127803 0.14726917 -0.08287799 -0.06462055 -0.06052855 -0.061509166 -0.12567204 -0.13764454
-0.04652178 -0.042392887 -0.12192453 -0.0086758435 -0.08414952 -0.19791536 -0.1654821 -0.14064085
-0.032868918 -0.1678559 -0.05406876 0.05640041 0.09432494 0.039750356 0.01772393 0.04259654
-0.047221415 -0.12349905 0.0720497 0.14983256 0.23117882 -0.09261647 -0.08196431 -0.028399467
-0.025631592 -0.0019813706 0.3215147 -0.16623214 0.0043643913 0.06955503 0.19331293 0.2124367
0.2701378 0.066806264 0.1907133 0.05414119 -0.0224461 -0.14188537 -0.22397806 -0.2241807
-0.2706924 -0.2035073 -0.13384718 -0.021686558 -0.100225054 0.006658211 0.07364735 0.14224264
